{"config": [{"config": {"trainable": true, "activation": "linear", "kernel_regularizer": {"config": {"l1": 0.0, "l2": 9.999999747378752e-06}, "class_name": "L1L2"}, "batch_input_shape": [null, 1, 25, 25], "name": "C01", "dtype": "float32", "use_bias": true, "kernel_constraint": null, "padding": "same", "data_format": "channels_first", "bias_regularizer": {"config": {"l1": 0.0, "l2": 9.999999747378752e-06}, "class_name": "L1L2"}, "strides": [1, 1], "kernel_initializer": {"config": {"stddev": 0.05, "mean": 0.0, "seed": null}, "class_name": "RandomNormal"}, "bias_initializer": {"config": {}, "class_name": "Zeros"}, "filters": 12, "bias_constraint": null, "kernel_size": [4, 4], "activity_regularizer": null, "dilation_rate": [1, 1]}, "class_name": "Conv2D"}, {"config": {"trainable": true, "name": "activation_1", "activation": "relu"}, "class_name": "Activation"}, {"config": {"trainable": true, "name": "S01", "strides": [2, 2], "pool_size": [2, 2], "data_format": "channels_first", "padding": "valid"}, "class_name": "MaxPooling2D"}, {"config": {"trainable": true, "name": "dropout_1", "seed": null, "noise_shape": null, "rate": 0.5}, "class_name": "Dropout"}, {"config": {"trainable": true, "activation": "linear", "kernel_regularizer": {"config": {"l1": 0.0, "l2": 9.999999747378752e-06}, "class_name": "L1L2"}, "use_bias": true, "name": "C03", "kernel_constraint": null, "padding": "valid", "data_format": "channels_first", "bias_regularizer": {"config": {"l1": 0.0, "l2": 9.999999747378752e-06}, "class_name": "L1L2"}, "strides": [1, 1], "kernel_initializer": {"config": {"stddev": 0.05, "mean": 0.0, "seed": null}, "class_name": "RandomNormal"}, "bias_initializer": {"config": {}, "class_name": "Zeros"}, "filters": 12, "bias_constraint": null, "kernel_size": [4, 4], "activity_regularizer": null, "dilation_rate": [1, 1]}, "class_name": "Conv2D"}, {"config": {"trainable": true, "name": "activation_2", "activation": "relu"}, "class_name": "Activation"}, {"config": {"trainable": true, "name": "S02", "strides": [2, 2], "pool_size": [2, 2], "data_format": "channels_first", "padding": "valid"}, "class_name": "MaxPooling2D"}, {"config": {"trainable": true, "name": "dropout_2", "seed": null, "noise_shape": null, "rate": 0.5}, "class_name": "Dropout"}, {"config": {"trainable": true, "name": "flatten_1"}, "class_name": "Flatten"}, {"config": {"trainable": true, "activation": "linear", "kernel_regularizer": {"config": {"l1": 0.0, "l2": 9.999999747378752e-06}, "class_name": "L1L2"}, "use_bias": true, "name": "C04", "kernel_constraint": null, "bias_regularizer": {"config": {"l1": 0.0, "l2": 9.999999747378752e-06}, "class_name": "L1L2"}, "kernel_initializer": {"config": {"stddev": 0.05, "mean": 0.0, "seed": null}, "class_name": "RandomNormal"}, "units": 100, "bias_initializer": {"config": {}, "class_name": "Zeros"}, "bias_constraint": null, "activity_regularizer": null}, "class_name": "Dense"}, {"config": {"trainable": true, "name": "activation_3", "activation": "relu"}, "class_name": "Activation"}, {"config": {"trainable": true, "activation": "linear", "kernel_regularizer": {"config": {"l1": 0.0, "l2": 9.999999747378752e-06}, "class_name": "L1L2"}, "use_bias": true, "name": "C05", "kernel_constraint": null, "bias_regularizer": {"config": {"l1": 0.0, "l2": 9.999999747378752e-06}, "class_name": "L1L2"}, "kernel_initializer": {"config": {"stddev": 0.05, "mean": 0.0, "seed": null}, "class_name": "RandomNormal"}, "units": 1, "bias_initializer": {"config": {}, "class_name": "Zeros"}, "bias_constraint": null, "activity_regularizer": null}, "class_name": "Dense"}, {"config": {"trainable": true, "name": "activation_4", "activation": "sigmoid"}, "class_name": "Activation"}], "class_name": "Sequential", "keras_version": "2.1.3", "backend": "tensorflow"}